{"modelTopology": {"keras_version": "2.2.2", "backend": "tensorflow", "model_config": {"class_name": "Model", "config": {"name": "model_1", "layers": [{"name": "input_1", "class_name": "InputLayer", "inbound_nodes": [], "config": {"name": "input_1", "dtype": "float32", "batch_input_shape": [null, 224, 224, 3], "sparse": false}}, {"name": "conv1_pad", "class_name": "ZeroPadding2D", "inbound_nodes": [[["input_1", 0, 0, {}]]], "config": {"name": "conv1_pad", "padding": [[0, 1], [0, 1]], "trainable": false, "data_format": "channels_last"}}, {"name": "conv1", "class_name": "Conv2D", "inbound_nodes": [[["conv1_pad", 0, 0, {}]]], "config": {"strides": [2, 2], "use_bias": false, "kernel_size": [3, 3], "bias_initializer": {"class_name": "Zeros", "config": {}}, "dilation_rate": [1, 1], "kernel_initializer": {"class_name": "VarianceScaling", "config": {"distribution": "uniform", "scale": 1.0, "mode": "fan_avg", "seed": null}}, "trainable": false, "padding": "valid", "kernel_constraint": null, "bias_regularizer": null, "data_format": "channels_last", "activity_regularizer": null, "filters": 32, "name": "conv1", "kernel_regularizer": null, "bias_constraint": null, "activation": "linear"}}, {"name": "conv1_bn", "class_name": "BatchNormalization", "inbound_nodes": [[["conv1", 0, 0, {}]]], "config": {"center": true, "moving_mean_initializer": {"class_name": "Zeros", "config": {}}, "gamma_regularizer": null, "scale": true, "momentum": 0.99, "gamma_constraint": null, "axis": -1, "moving_variance_initializer": {"class_name": "Ones", "config": {}}, "epsilon": 0.001, "gamma_initializer": {"class_name": "Ones", "config": {}}, "beta_constraint": null, "name": "conv1_bn", "beta_initializer": {"class_name": "Zeros", "config": {}}, "trainable": false, "beta_regularizer": null}}, {"name": "conv1_relu", "class_name": "ReLU", "inbound_nodes": [[["conv1_bn", 0, 0, {}]]], "config": {"name": "conv1_relu", "trainable": false, "max_value": 6.0}}, {"name": "conv_dw_1", "class_name": "DepthwiseConv2D", "inbound_nodes": [[["conv1_relu", 0, 0, {}]]], "config": {"strides": [1, 1], "use_bias": false, "kernel_size": [3, 3], "bias_initializer": {"class_name": "Zeros", "config": {}}, "dilation_rate": [1, 1], "depthwise_constraint": null, "padding": "same", "bias_regularizer": null, "data_format": "channels_last", "depthwise_regularizer": null, "activity_regularizer": null, "depthwise_initializer": {"class_name": "VarianceScaling", "config": {"distribution": "uniform", "scale": 1.0, "mode": "fan_avg", "seed": null}}, "depth_multiplier": 1, "name": "conv_dw_1", "activation": "linear", "bias_constraint": null, "trainable": false}}, {"name": "conv_dw_1_bn", "class_name": "BatchNormalization", "inbound_nodes": [[["conv_dw_1", 0, 0, {}]]], "config": {"center": true, "moving_mean_initializer": {"class_name": "Zeros", "config": {}}, "gamma_regularizer": null, "scale": true, "momentum": 0.99, "gamma_constraint": null, "axis": -1, "moving_variance_initializer": {"class_name": "Ones", "config": {}}, "epsilon": 0.001, "gamma_initializer": {"class_name": "Ones", "config": {}}, "beta_constraint": null, "name": "conv_dw_1_bn", "beta_initializer": {"class_name": "Zeros", "config": {}}, "trainable": false, "beta_regularizer": null}}, {"name": "conv_dw_1_relu", "class_name": "ReLU", "inbound_nodes": [[["conv_dw_1_bn", 0, 0, {}]]], "config": {"name": "conv_dw_1_relu", "trainable": false, "max_value": 6.0}}, {"name": "conv_pw_1", "class_name": "Conv2D", "inbound_nodes": [[["conv_dw_1_relu", 0, 0, {}]]], "config": {"strides": [1, 1], "use_bias": false, "kernel_size": [1, 1], "bias_initializer": {"class_name": "Zeros", "config": {}}, "dilation_rate": [1, 1], "kernel_initializer": {"class_name": "VarianceScaling", "config": {"distribution": "uniform", "scale": 1.0, "mode": "fan_avg", "seed": null}}, "trainable": false, "padding": "same", "kernel_constraint": null, "bias_regularizer": null, "data_format": "channels_last", "activity_regularizer": null, "filters": 64, "name": "conv_pw_1", "kernel_regularizer": null, "bias_constraint": null, "activation": "linear"}}, {"name": "conv_pw_1_bn", "class_name": "BatchNormalization", "inbound_nodes": [[["conv_pw_1", 0, 0, {}]]], "config": {"center": true, "moving_mean_initializer": {"class_name": "Zeros", "config": {}}, "gamma_regularizer": null, "scale": true, "momentum": 0.99, "gamma_constraint": null, "axis": -1, "moving_variance_initializer": {"class_name": "Ones", "config": {}}, "epsilon": 0.001, "gamma_initializer": {"class_name": "Ones", "config": {}}, "beta_constraint": null, "name": "conv_pw_1_bn", "beta_initializer": {"class_name": "Zeros", "config": {}}, "trainable": false, "beta_regularizer": null}}, {"name": "conv_pw_1_relu", "class_name": "ReLU", "inbound_nodes": [[["conv_pw_1_bn", 0, 0, {}]]], "config": {"name": "conv_pw_1_relu", "trainable": false, "max_value": 6.0}}, {"name": "conv_pad_2", "class_name": "ZeroPadding2D", "inbound_nodes": [[["conv_pw_1_relu", 0, 0, {}]]], "config": {"name": "conv_pad_2", "padding": [[0, 1], [0, 1]], "trainable": false, "data_format": "channels_last"}}, {"name": "conv_dw_2", "class_name": "DepthwiseConv2D", "inbound_nodes": [[["conv_pad_2", 0, 0, {}]]], "config": {"strides": [2, 2], "use_bias": false, "kernel_size": [3, 3], "bias_initializer": {"class_name": "Zeros", "config": {}}, "dilation_rate": [1, 1], "depthwise_constraint": null, "padding": "valid", "bias_regularizer": null, "data_format": "channels_last", "depthwise_regularizer": null, "activity_regularizer": null, "depthwise_initializer": {"class_name": "VarianceScaling", "config": {"distribution": "uniform", "scale": 1.0, "mode": "fan_avg", "seed": null}}, "depth_multiplier": 1, "name": "conv_dw_2", "activation": "linear", "bias_constraint": null, "trainable": false}}, {"name": "conv_dw_2_bn", "class_name": "BatchNormalization", "inbound_nodes": [[["conv_dw_2", 0, 0, {}]]], "config": {"center": true, "moving_mean_initializer": {"class_name": "Zeros", "config": {}}, "gamma_regularizer": null, "scale": true, "momentum": 0.99, "gamma_constraint": null, "axis": -1, "moving_variance_initializer": {"class_name": "Ones", "config": {}}, "epsilon": 0.001, "gamma_initializer": {"class_name": "Ones", "config": {}}, "beta_constraint": null, "name": "conv_dw_2_bn", "beta_initializer": {"class_name": "Zeros", "config": {}}, "trainable": false, "beta_regularizer": null}}, {"name": "conv_dw_2_relu", "class_name": "ReLU", "inbound_nodes": [[["conv_dw_2_bn", 0, 0, {}]]], "config": {"name": "conv_dw_2_relu", "trainable": false, "max_value": 6.0}}, {"name": "conv_pw_2", "class_name": "Conv2D", "inbound_nodes": [[["conv_dw_2_relu", 0, 0, {}]]], "config": {"strides": [1, 1], "use_bias": false, "kernel_size": [1, 1], "bias_initializer": {"class_name": "Zeros", "config": {}}, "dilation_rate": [1, 1], "kernel_initializer": {"class_name": "VarianceScaling", "config": {"distribution": "uniform", "scale": 1.0, "mode": "fan_avg", "seed": null}}, "trainable": false, "padding": "same", "kernel_constraint": null, "bias_regularizer": null, "data_format": "channels_last", "activity_regularizer": null, "filters": 128, "name": "conv_pw_2", "kernel_regularizer": null, "bias_constraint": null, "activation": "linear"}}, {"name": "conv_pw_2_bn", "class_name": "BatchNormalization", "inbound_nodes": [[["conv_pw_2", 0, 0, {}]]], "config": {"center": true, "moving_mean_initializer": {"class_name": "Zeros", "config": {}}, "gamma_regularizer": null, "scale": true, "momentum": 0.99, "gamma_constraint": null, "axis": -1, "moving_variance_initializer": {"class_name": "Ones", "config": {}}, "epsilon": 0.001, "gamma_initializer": {"class_name": "Ones", "config": {}}, "beta_constraint": null, "name": "conv_pw_2_bn", "beta_initializer": {"class_name": "Zeros", "config": {}}, "trainable": false, "beta_regularizer": null}}, {"name": "conv_pw_2_relu", "class_name": "ReLU", "inbound_nodes": [[["conv_pw_2_bn", 0, 0, {}]]], "config": {"name": "conv_pw_2_relu", "trainable": false, "max_value": 6.0}}, {"name": "conv_dw_3", "class_name": "DepthwiseConv2D", "inbound_nodes": [[["conv_pw_2_relu", 0, 0, {}]]], "config": {"strides": [1, 1], "use_bias": false, "kernel_size": [3, 3], "bias_initializer": {"class_name": "Zeros", "config": {}}, "dilation_rate": [1, 1], "depthwise_constraint": null, "padding": "same", "bias_regularizer": null, "data_format": "channels_last", "depthwise_regularizer": null, "activity_regularizer": null, "depthwise_initializer": {"class_name": "VarianceScaling", "config": {"distribution": "uniform", "scale": 1.0, "mode": "fan_avg", "seed": null}}, "depth_multiplier": 1, "name": "conv_dw_3", "activation": "linear", "bias_constraint": null, "trainable": false}}, {"name": "conv_dw_3_bn", "class_name": "BatchNormalization", "inbound_nodes": [[["conv_dw_3", 0, 0, {}]]], "config": {"center": true, "moving_mean_initializer": {"class_name": "Zeros", "config": {}}, "gamma_regularizer": null, "scale": true, "momentum": 0.99, "gamma_constraint": null, "axis": -1, "moving_variance_initializer": {"class_name": "Ones", "config": {}}, "epsilon": 0.001, "gamma_initializer": {"class_name": "Ones", "config": {}}, "beta_constraint": null, "name": "conv_dw_3_bn", "beta_initializer": {"class_name": "Zeros", "config": {}}, "trainable": false, "beta_regularizer": null}}, {"name": "conv_dw_3_relu", "class_name": "ReLU", "inbound_nodes": [[["conv_dw_3_bn", 0, 0, {}]]], "config": {"name": "conv_dw_3_relu", "trainable": false, "max_value": 6.0}}, {"name": "conv_pw_3", "class_name": "Conv2D", "inbound_nodes": [[["conv_dw_3_relu", 0, 0, {}]]], "config": {"strides": [1, 1], "use_bias": false, "kernel_size": [1, 1], "bias_initializer": {"class_name": "Zeros", "config": {}}, "dilation_rate": [1, 1], "kernel_initializer": {"class_name": "VarianceScaling", "config": {"distribution": "uniform", "scale": 1.0, "mode": "fan_avg", "seed": null}}, "trainable": false, "padding": "same", "kernel_constraint": null, "bias_regularizer": null, "data_format": "channels_last", "activity_regularizer": null, "filters": 128, "name": "conv_pw_3", "kernel_regularizer": null, "bias_constraint": null, "activation": "linear"}}, {"name": "conv_pw_3_bn", "class_name": "BatchNormalization", "inbound_nodes": [[["conv_pw_3", 0, 0, {}]]], "config": {"center": true, "moving_mean_initializer": {"class_name": "Zeros", "config": {}}, "gamma_regularizer": null, "scale": true, "momentum": 0.99, "gamma_constraint": null, "axis": -1, "moving_variance_initializer": {"class_name": "Ones", "config": {}}, "epsilon": 0.001, "gamma_initializer": {"class_name": "Ones", "config": {}}, "beta_constraint": null, "name": "conv_pw_3_bn", "beta_initializer": {"class_name": "Zeros", "config": {}}, "trainable": false, "beta_regularizer": null}}, {"name": "conv_pw_3_relu", "class_name": "ReLU", "inbound_nodes": [[["conv_pw_3_bn", 0, 0, {}]]], "config": {"name": "conv_pw_3_relu", "trainable": false, "max_value": 6.0}}, {"name": "conv_pad_4", "class_name": "ZeroPadding2D", "inbound_nodes": [[["conv_pw_3_relu", 0, 0, {}]]], "config": {"name": "conv_pad_4", "padding": [[0, 1], [0, 1]], "trainable": false, "data_format": "channels_last"}}, {"name": "conv_dw_4", "class_name": "DepthwiseConv2D", "inbound_nodes": [[["conv_pad_4", 0, 0, {}]]], "config": {"strides": [2, 2], "use_bias": false, "kernel_size": [3, 3], "bias_initializer": {"class_name": "Zeros", "config": {}}, "dilation_rate": [1, 1], "depthwise_constraint": null, "padding": "valid", "bias_regularizer": null, "data_format": "channels_last", "depthwise_regularizer": null, "activity_regularizer": null, "depthwise_initializer": {"class_name": "VarianceScaling", "config": {"distribution": "uniform", "scale": 1.0, "mode": "fan_avg", "seed": null}}, "depth_multiplier": 1, "name": "conv_dw_4", "activation": "linear", "bias_constraint": null, "trainable": false}}, {"name": "conv_dw_4_bn", "class_name": "BatchNormalization", "inbound_nodes": [[["conv_dw_4", 0, 0, {}]]], "config": {"center": true, "moving_mean_initializer": {"class_name": "Zeros", "config": {}}, "gamma_regularizer": null, "scale": true, "momentum": 0.99, "gamma_constraint": null, "axis": -1, "moving_variance_initializer": {"class_name": "Ones", "config": {}}, "epsilon": 0.001, "gamma_initializer": {"class_name": "Ones", "config": {}}, "beta_constraint": null, "name": "conv_dw_4_bn", "beta_initializer": {"class_name": "Zeros", "config": {}}, "trainable": false, "beta_regularizer": null}}, {"name": "conv_dw_4_relu", "class_name": "ReLU", "inbound_nodes": [[["conv_dw_4_bn", 0, 0, {}]]], "config": {"name": "conv_dw_4_relu", "trainable": false, "max_value": 6.0}}, {"name": "conv_pw_4", "class_name": "Conv2D", "inbound_nodes": [[["conv_dw_4_relu", 0, 0, {}]]], "config": {"strides": [1, 1], "use_bias": false, "kernel_size": [1, 1], "bias_initializer": {"class_name": "Zeros", "config": {}}, "dilation_rate": [1, 1], "kernel_initializer": {"class_name": "VarianceScaling", "config": {"distribution": "uniform", "scale": 1.0, "mode": "fan_avg", "seed": null}}, "trainable": false, "padding": "same", "kernel_constraint": null, "bias_regularizer": null, "data_format": "channels_last", "activity_regularizer": null, "filters": 256, "name": "conv_pw_4", "kernel_regularizer": null, "bias_constraint": null, "activation": "linear"}}, {"name": "conv_pw_4_bn", "class_name": "BatchNormalization", "inbound_nodes": [[["conv_pw_4", 0, 0, {}]]], "config": {"center": true, "moving_mean_initializer": {"class_name": "Zeros", "config": {}}, "gamma_regularizer": null, "scale": true, "momentum": 0.99, "gamma_constraint": null, "axis": -1, "moving_variance_initializer": {"class_name": "Ones", "config": {}}, "epsilon": 0.001, "gamma_initializer": {"class_name": "Ones", "config": {}}, "beta_constraint": null, "name": "conv_pw_4_bn", "beta_initializer": {"class_name": "Zeros", "config": {}}, "trainable": false, "beta_regularizer": null}}, {"name": "conv_pw_4_relu", "class_name": "ReLU", "inbound_nodes": [[["conv_pw_4_bn", 0, 0, {}]]], "config": {"name": "conv_pw_4_relu", "trainable": false, "max_value": 6.0}}, {"name": "conv_dw_5", "class_name": "DepthwiseConv2D", "inbound_nodes": [[["conv_pw_4_relu", 0, 0, {}]]], "config": {"strides": [1, 1], "use_bias": false, "kernel_size": [3, 3], "bias_initializer": {"class_name": "Zeros", "config": {}}, "dilation_rate": [1, 1], "depthwise_constraint": null, "padding": "same", "bias_regularizer": null, "data_format": "channels_last", "depthwise_regularizer": null, "activity_regularizer": null, "depthwise_initializer": {"class_name": "VarianceScaling", "config": {"distribution": "uniform", "scale": 1.0, "mode": "fan_avg", "seed": null}}, "depth_multiplier": 1, "name": "conv_dw_5", "activation": "linear", "bias_constraint": null, "trainable": false}}, {"name": "conv_dw_5_bn", "class_name": "BatchNormalization", "inbound_nodes": [[["conv_dw_5", 0, 0, {}]]], "config": {"center": true, "moving_mean_initializer": {"class_name": "Zeros", "config": {}}, "gamma_regularizer": null, "scale": true, "momentum": 0.99, "gamma_constraint": null, "axis": -1, "moving_variance_initializer": {"class_name": "Ones", "config": {}}, "epsilon": 0.001, "gamma_initializer": {"class_name": "Ones", "config": {}}, "beta_constraint": null, "name": "conv_dw_5_bn", "beta_initializer": {"class_name": "Zeros", "config": {}}, "trainable": false, "beta_regularizer": null}}, {"name": "conv_dw_5_relu", "class_name": "ReLU", "inbound_nodes": [[["conv_dw_5_bn", 0, 0, {}]]], "config": {"name": "conv_dw_5_relu", "trainable": false, "max_value": 6.0}}, {"name": "conv_pw_5", "class_name": "Conv2D", "inbound_nodes": [[["conv_dw_5_relu", 0, 0, {}]]], "config": {"strides": [1, 1], "use_bias": false, "kernel_size": [1, 1], "bias_initializer": {"class_name": "Zeros", "config": {}}, "dilation_rate": [1, 1], "kernel_initializer": {"class_name": "VarianceScaling", "config": {"distribution": "uniform", "scale": 1.0, "mode": "fan_avg", "seed": null}}, "trainable": false, "padding": "same", "kernel_constraint": null, "bias_regularizer": null, "data_format": "channels_last", "activity_regularizer": null, "filters": 256, "name": "conv_pw_5", "kernel_regularizer": null, "bias_constraint": null, "activation": "linear"}}, {"name": "conv_pw_5_bn", "class_name": "BatchNormalization", "inbound_nodes": [[["conv_pw_5", 0, 0, {}]]], "config": {"center": true, "moving_mean_initializer": {"class_name": "Zeros", "config": {}}, "gamma_regularizer": null, "scale": true, "momentum": 0.99, "gamma_constraint": null, "axis": -1, "moving_variance_initializer": {"class_name": "Ones", "config": {}}, "epsilon": 0.001, "gamma_initializer": {"class_name": "Ones", "config": {}}, "beta_constraint": null, "name": "conv_pw_5_bn", "beta_initializer": {"class_name": "Zeros", "config": {}}, "trainable": false, "beta_regularizer": null}}, {"name": "conv_pw_5_relu", "class_name": "ReLU", "inbound_nodes": [[["conv_pw_5_bn", 0, 0, {}]]], "config": {"name": "conv_pw_5_relu", "trainable": false, "max_value": 6.0}}, {"name": "conv_pad_6", "class_name": "ZeroPadding2D", "inbound_nodes": [[["conv_pw_5_relu", 0, 0, {}]]], "config": {"name": "conv_pad_6", "padding": [[0, 1], [0, 1]], "trainable": false, "data_format": "channels_last"}}, {"name": "conv_dw_6", "class_name": "DepthwiseConv2D", "inbound_nodes": [[["conv_pad_6", 0, 0, {}]]], "config": {"strides": [2, 2], "use_bias": false, "kernel_size": [3, 3], "bias_initializer": {"class_name": "Zeros", "config": {}}, "dilation_rate": [1, 1], "depthwise_constraint": null, "padding": "valid", "bias_regularizer": null, "data_format": "channels_last", "depthwise_regularizer": null, "activity_regularizer": null, "depthwise_initializer": {"class_name": "VarianceScaling", "config": {"distribution": "uniform", "scale": 1.0, "mode": "fan_avg", "seed": null}}, "depth_multiplier": 1, "name": "conv_dw_6", "activation": "linear", "bias_constraint": null, "trainable": false}}, {"name": "conv_dw_6_bn", "class_name": "BatchNormalization", "inbound_nodes": [[["conv_dw_6", 0, 0, {}]]], "config": {"center": true, "moving_mean_initializer": {"class_name": "Zeros", "config": {}}, "gamma_regularizer": null, "scale": true, "momentum": 0.99, "gamma_constraint": null, "axis": -1, "moving_variance_initializer": {"class_name": "Ones", "config": {}}, "epsilon": 0.001, "gamma_initializer": {"class_name": "Ones", "config": {}}, "beta_constraint": null, "name": "conv_dw_6_bn", "beta_initializer": {"class_name": "Zeros", "config": {}}, "trainable": false, "beta_regularizer": null}}, {"name": "conv_dw_6_relu", "class_name": "ReLU", "inbound_nodes": [[["conv_dw_6_bn", 0, 0, {}]]], "config": {"name": "conv_dw_6_relu", "trainable": false, "max_value": 6.0}}, {"name": "conv_pw_6", "class_name": "Conv2D", "inbound_nodes": [[["conv_dw_6_relu", 0, 0, {}]]], "config": {"strides": [1, 1], "use_bias": false, "kernel_size": [1, 1], "bias_initializer": {"class_name": "Zeros", "config": {}}, "dilation_rate": [1, 1], "kernel_initializer": {"class_name": "VarianceScaling", "config": {"distribution": "uniform", "scale": 1.0, "mode": "fan_avg", "seed": null}}, "trainable": false, "padding": "same", "kernel_constraint": null, "bias_regularizer": null, "data_format": "channels_last", "activity_regularizer": null, "filters": 512, "name": "conv_pw_6", "kernel_regularizer": null, "bias_constraint": null, "activation": "linear"}}, {"name": "conv_pw_6_bn", "class_name": "BatchNormalization", "inbound_nodes": [[["conv_pw_6", 0, 0, {}]]], "config": {"center": true, "moving_mean_initializer": {"class_name": "Zeros", "config": {}}, "gamma_regularizer": null, "scale": true, "momentum": 0.99, "gamma_constraint": null, "axis": -1, "moving_variance_initializer": {"class_name": "Ones", "config": {}}, "epsilon": 0.001, "gamma_initializer": {"class_name": "Ones", "config": {}}, "beta_constraint": null, "name": "conv_pw_6_bn", "beta_initializer": {"class_name": "Zeros", "config": {}}, "trainable": false, "beta_regularizer": null}}, {"name": "conv_pw_6_relu", "class_name": "ReLU", "inbound_nodes": [[["conv_pw_6_bn", 0, 0, {}]]], "config": {"name": "conv_pw_6_relu", "trainable": false, "max_value": 6.0}}, {"name": "conv_dw_7", "class_name": "DepthwiseConv2D", "inbound_nodes": [[["conv_pw_6_relu", 0, 0, {}]]], "config": {"strides": [1, 1], "use_bias": false, "kernel_size": [3, 3], "bias_initializer": {"class_name": "Zeros", "config": {}}, "dilation_rate": [1, 1], "depthwise_constraint": null, "padding": "same", "bias_regularizer": null, "data_format": "channels_last", "depthwise_regularizer": null, "activity_regularizer": null, "depthwise_initializer": {"class_name": "VarianceScaling", "config": {"distribution": "uniform", "scale": 1.0, "mode": "fan_avg", "seed": null}}, "depth_multiplier": 1, "name": "conv_dw_7", "activation": "linear", "bias_constraint": null, "trainable": false}}, {"name": "conv_dw_7_bn", "class_name": "BatchNormalization", "inbound_nodes": [[["conv_dw_7", 0, 0, {}]]], "config": {"center": true, "moving_mean_initializer": {"class_name": "Zeros", "config": {}}, "gamma_regularizer": null, "scale": true, "momentum": 0.99, "gamma_constraint": null, "axis": -1, "moving_variance_initializer": {"class_name": "Ones", "config": {}}, "epsilon": 0.001, "gamma_initializer": {"class_name": "Ones", "config": {}}, "beta_constraint": null, "name": "conv_dw_7_bn", "beta_initializer": {"class_name": "Zeros", "config": {}}, "trainable": false, "beta_regularizer": null}}, {"name": "conv_dw_7_relu", "class_name": "ReLU", "inbound_nodes": [[["conv_dw_7_bn", 0, 0, {}]]], "config": {"name": "conv_dw_7_relu", "trainable": false, "max_value": 6.0}}, {"name": "conv_pw_7", "class_name": "Conv2D", "inbound_nodes": [[["conv_dw_7_relu", 0, 0, {}]]], "config": {"strides": [1, 1], "use_bias": false, "kernel_size": [1, 1], "bias_initializer": {"class_name": "Zeros", "config": {}}, "dilation_rate": [1, 1], "kernel_initializer": {"class_name": "VarianceScaling", "config": {"distribution": "uniform", "scale": 1.0, "mode": "fan_avg", "seed": null}}, "trainable": false, "padding": "same", "kernel_constraint": null, "bias_regularizer": null, "data_format": "channels_last", "activity_regularizer": null, "filters": 512, "name": "conv_pw_7", "kernel_regularizer": null, "bias_constraint": null, "activation": "linear"}}, {"name": "conv_pw_7_bn", "class_name": "BatchNormalization", "inbound_nodes": [[["conv_pw_7", 0, 0, {}]]], "config": {"center": true, "moving_mean_initializer": {"class_name": "Zeros", "config": {}}, "gamma_regularizer": null, "scale": true, "momentum": 0.99, "gamma_constraint": null, "axis": -1, "moving_variance_initializer": {"class_name": "Ones", "config": {}}, "epsilon": 0.001, "gamma_initializer": {"class_name": "Ones", "config": {}}, "beta_constraint": null, "name": "conv_pw_7_bn", "beta_initializer": {"class_name": "Zeros", "config": {}}, "trainable": false, "beta_regularizer": null}}, {"name": "conv_pw_7_relu", "class_name": "ReLU", "inbound_nodes": [[["conv_pw_7_bn", 0, 0, {}]]], "config": {"name": "conv_pw_7_relu", "trainable": false, "max_value": 6.0}}, {"name": "conv_dw_8", "class_name": "DepthwiseConv2D", "inbound_nodes": [[["conv_pw_7_relu", 0, 0, {}]]], "config": {"strides": [1, 1], "use_bias": false, "kernel_size": [3, 3], "bias_initializer": {"class_name": "Zeros", "config": {}}, "dilation_rate": [1, 1], "depthwise_constraint": null, "padding": "same", "bias_regularizer": null, "data_format": "channels_last", "depthwise_regularizer": null, "activity_regularizer": null, "depthwise_initializer": {"class_name": "VarianceScaling", "config": {"distribution": "uniform", "scale": 1.0, "mode": "fan_avg", "seed": null}}, "depth_multiplier": 1, "name": "conv_dw_8", "activation": "linear", "bias_constraint": null, "trainable": false}}, {"name": "conv_dw_8_bn", "class_name": "BatchNormalization", "inbound_nodes": [[["conv_dw_8", 0, 0, {}]]], "config": {"center": true, "moving_mean_initializer": {"class_name": "Zeros", "config": {}}, "gamma_regularizer": null, "scale": true, "momentum": 0.99, "gamma_constraint": null, "axis": -1, "moving_variance_initializer": {"class_name": "Ones", "config": {}}, "epsilon": 0.001, "gamma_initializer": {"class_name": "Ones", "config": {}}, "beta_constraint": null, "name": "conv_dw_8_bn", "beta_initializer": {"class_name": "Zeros", "config": {}}, "trainable": false, "beta_regularizer": null}}, {"name": "conv_dw_8_relu", "class_name": "ReLU", "inbound_nodes": [[["conv_dw_8_bn", 0, 0, {}]]], "config": {"name": "conv_dw_8_relu", "trainable": false, "max_value": 6.0}}, {"name": "conv_pw_8", "class_name": "Conv2D", "inbound_nodes": [[["conv_dw_8_relu", 0, 0, {}]]], "config": {"strides": [1, 1], "use_bias": false, "kernel_size": [1, 1], "bias_initializer": {"class_name": "Zeros", "config": {}}, "dilation_rate": [1, 1], "kernel_initializer": {"class_name": "VarianceScaling", "config": {"distribution": "uniform", "scale": 1.0, "mode": "fan_avg", "seed": null}}, "trainable": false, "padding": "same", "kernel_constraint": null, "bias_regularizer": null, "data_format": "channels_last", "activity_regularizer": null, "filters": 512, "name": "conv_pw_8", "kernel_regularizer": null, "bias_constraint": null, "activation": "linear"}}, {"name": "conv_pw_8_bn", "class_name": "BatchNormalization", "inbound_nodes": [[["conv_pw_8", 0, 0, {}]]], "config": {"center": true, "moving_mean_initializer": {"class_name": "Zeros", "config": {}}, "gamma_regularizer": null, "scale": true, "momentum": 0.99, "gamma_constraint": null, "axis": -1, "moving_variance_initializer": {"class_name": "Ones", "config": {}}, "epsilon": 0.001, "gamma_initializer": {"class_name": "Ones", "config": {}}, "beta_constraint": null, "name": "conv_pw_8_bn", "beta_initializer": {"class_name": "Zeros", "config": {}}, "trainable": false, "beta_regularizer": null}}, {"name": "conv_pw_8_relu", "class_name": "ReLU", "inbound_nodes": [[["conv_pw_8_bn", 0, 0, {}]]], "config": {"name": "conv_pw_8_relu", "trainable": false, "max_value": 6.0}}, {"name": "conv_dw_9", "class_name": "DepthwiseConv2D", "inbound_nodes": [[["conv_pw_8_relu", 0, 0, {}]]], "config": {"strides": [1, 1], "use_bias": false, "kernel_size": [3, 3], "bias_initializer": {"class_name": "Zeros", "config": {}}, "dilation_rate": [1, 1], "depthwise_constraint": null, "padding": "same", "bias_regularizer": null, "data_format": "channels_last", "depthwise_regularizer": null, "activity_regularizer": null, "depthwise_initializer": {"class_name": "VarianceScaling", "config": {"distribution": "uniform", "scale": 1.0, "mode": "fan_avg", "seed": null}}, "depth_multiplier": 1, "name": "conv_dw_9", "activation": "linear", "bias_constraint": null, "trainable": false}}, {"name": "conv_dw_9_bn", "class_name": "BatchNormalization", "inbound_nodes": [[["conv_dw_9", 0, 0, {}]]], "config": {"center": true, "moving_mean_initializer": {"class_name": "Zeros", "config": {}}, "gamma_regularizer": null, "scale": true, "momentum": 0.99, "gamma_constraint": null, "axis": -1, "moving_variance_initializer": {"class_name": "Ones", "config": {}}, "epsilon": 0.001, "gamma_initializer": {"class_name": "Ones", "config": {}}, "beta_constraint": null, "name": "conv_dw_9_bn", "beta_initializer": {"class_name": "Zeros", "config": {}}, "trainable": false, "beta_regularizer": null}}, {"name": "conv_dw_9_relu", "class_name": "ReLU", "inbound_nodes": [[["conv_dw_9_bn", 0, 0, {}]]], "config": {"name": "conv_dw_9_relu", "trainable": false, "max_value": 6.0}}, {"name": "conv_pw_9", "class_name": "Conv2D", "inbound_nodes": [[["conv_dw_9_relu", 0, 0, {}]]], "config": {"strides": [1, 1], "use_bias": false, "kernel_size": [1, 1], "bias_initializer": {"class_name": "Zeros", "config": {}}, "dilation_rate": [1, 1], "kernel_initializer": {"class_name": "VarianceScaling", "config": {"distribution": "uniform", "scale": 1.0, "mode": "fan_avg", "seed": null}}, "trainable": false, "padding": "same", "kernel_constraint": null, "bias_regularizer": null, "data_format": "channels_last", "activity_regularizer": null, "filters": 512, "name": "conv_pw_9", "kernel_regularizer": null, "bias_constraint": null, "activation": "linear"}}, {"name": "conv_pw_9_bn", "class_name": "BatchNormalization", "inbound_nodes": [[["conv_pw_9", 0, 0, {}]]], "config": {"center": true, "moving_mean_initializer": {"class_name": "Zeros", "config": {}}, "gamma_regularizer": null, "scale": true, "momentum": 0.99, "gamma_constraint": null, "axis": -1, "moving_variance_initializer": {"class_name": "Ones", "config": {}}, "epsilon": 0.001, "gamma_initializer": {"class_name": "Ones", "config": {}}, "beta_constraint": null, "name": "conv_pw_9_bn", "beta_initializer": {"class_name": "Zeros", "config": {}}, "trainable": false, "beta_regularizer": null}}, {"name": "conv_pw_9_relu", "class_name": "ReLU", "inbound_nodes": [[["conv_pw_9_bn", 0, 0, {}]]], "config": {"name": "conv_pw_9_relu", "trainable": false, "max_value": 6.0}}, {"name": "conv_dw_10", "class_name": "DepthwiseConv2D", "inbound_nodes": [[["conv_pw_9_relu", 0, 0, {}]]], "config": {"strides": [1, 1], "use_bias": false, "kernel_size": [3, 3], "bias_initializer": {"class_name": "Zeros", "config": {}}, "dilation_rate": [1, 1], "depthwise_constraint": null, "padding": "same", "bias_regularizer": null, "data_format": "channels_last", "depthwise_regularizer": null, "activity_regularizer": null, "depthwise_initializer": {"class_name": "VarianceScaling", "config": {"distribution": "uniform", "scale": 1.0, "mode": "fan_avg", "seed": null}}, "depth_multiplier": 1, "name": "conv_dw_10", "activation": "linear", "bias_constraint": null, "trainable": false}}, {"name": "conv_dw_10_bn", "class_name": "BatchNormalization", "inbound_nodes": [[["conv_dw_10", 0, 0, {}]]], "config": {"center": true, "moving_mean_initializer": {"class_name": "Zeros", "config": {}}, "gamma_regularizer": null, "scale": true, "momentum": 0.99, "gamma_constraint": null, "axis": -1, "moving_variance_initializer": {"class_name": "Ones", "config": {}}, "epsilon": 0.001, "gamma_initializer": {"class_name": "Ones", "config": {}}, "beta_constraint": null, "name": "conv_dw_10_bn", "beta_initializer": {"class_name": "Zeros", "config": {}}, "trainable": false, "beta_regularizer": null}}, {"name": "conv_dw_10_relu", "class_name": "ReLU", "inbound_nodes": [[["conv_dw_10_bn", 0, 0, {}]]], "config": {"name": "conv_dw_10_relu", "trainable": false, "max_value": 6.0}}, {"name": "conv_pw_10", "class_name": "Conv2D", "inbound_nodes": [[["conv_dw_10_relu", 0, 0, {}]]], "config": {"strides": [1, 1], "use_bias": false, "kernel_size": [1, 1], "bias_initializer": {"class_name": "Zeros", "config": {}}, "dilation_rate": [1, 1], "kernel_initializer": {"class_name": "VarianceScaling", "config": {"distribution": "uniform", "scale": 1.0, "mode": "fan_avg", "seed": null}}, "trainable": false, "padding": "same", "kernel_constraint": null, "bias_regularizer": null, "data_format": "channels_last", "activity_regularizer": null, "filters": 512, "name": "conv_pw_10", "kernel_regularizer": null, "bias_constraint": null, "activation": "linear"}}, {"name": "conv_pw_10_bn", "class_name": "BatchNormalization", "inbound_nodes": [[["conv_pw_10", 0, 0, {}]]], "config": {"center": true, "moving_mean_initializer": {"class_name": "Zeros", "config": {}}, "gamma_regularizer": null, "scale": true, "momentum": 0.99, "gamma_constraint": null, "axis": -1, "moving_variance_initializer": {"class_name": "Ones", "config": {}}, "epsilon": 0.001, "gamma_initializer": {"class_name": "Ones", "config": {}}, "beta_constraint": null, "name": "conv_pw_10_bn", "beta_initializer": {"class_name": "Zeros", "config": {}}, "trainable": false, "beta_regularizer": null}}, {"name": "conv_pw_10_relu", "class_name": "ReLU", "inbound_nodes": [[["conv_pw_10_bn", 0, 0, {}]]], "config": {"name": "conv_pw_10_relu", "trainable": true, "max_value": 6.0}}, {"name": "conv_dw_11", "class_name": "DepthwiseConv2D", "inbound_nodes": [[["conv_pw_10_relu", 0, 0, {}]]], "config": {"strides": [1, 1], "use_bias": false, "kernel_size": [3, 3], "bias_initializer": {"class_name": "Zeros", "config": {}}, "dilation_rate": [1, 1], "depthwise_constraint": null, "padding": "same", "bias_regularizer": null, "data_format": "channels_last", "depthwise_regularizer": null, "activity_regularizer": null, "depthwise_initializer": {"class_name": "VarianceScaling", "config": {"distribution": "uniform", "scale": 1.0, "mode": "fan_avg", "seed": null}}, "depth_multiplier": 1, "name": "conv_dw_11", "activation": "linear", "bias_constraint": null, "trainable": true}}, {"name": "conv_dw_11_bn", "class_name": "BatchNormalization", "inbound_nodes": [[["conv_dw_11", 0, 0, {}]]], "config": {"center": true, "moving_mean_initializer": {"class_name": "Zeros", "config": {}}, "gamma_regularizer": null, "scale": true, "momentum": 0.99, "gamma_constraint": null, "axis": -1, "moving_variance_initializer": {"class_name": "Ones", "config": {}}, "epsilon": 0.001, "gamma_initializer": {"class_name": "Ones", "config": {}}, "beta_constraint": null, "name": "conv_dw_11_bn", "beta_initializer": {"class_name": "Zeros", "config": {}}, "trainable": true, "beta_regularizer": null}}, {"name": "conv_dw_11_relu", "class_name": "ReLU", "inbound_nodes": [[["conv_dw_11_bn", 0, 0, {}]]], "config": {"name": "conv_dw_11_relu", "trainable": true, "max_value": 6.0}}, {"name": "conv_pw_11", "class_name": "Conv2D", "inbound_nodes": [[["conv_dw_11_relu", 0, 0, {}]]], "config": {"strides": [1, 1], "use_bias": false, "kernel_size": [1, 1], "bias_initializer": {"class_name": "Zeros", "config": {}}, "dilation_rate": [1, 1], "kernel_initializer": {"class_name": "VarianceScaling", "config": {"distribution": "uniform", "scale": 1.0, "mode": "fan_avg", "seed": null}}, "trainable": true, "padding": "same", "kernel_constraint": null, "bias_regularizer": null, "data_format": "channels_last", "activity_regularizer": null, "filters": 512, "name": "conv_pw_11", "kernel_regularizer": null, "bias_constraint": null, "activation": "linear"}}, {"name": "conv_pw_11_bn", "class_name": "BatchNormalization", "inbound_nodes": [[["conv_pw_11", 0, 0, {}]]], "config": {"center": true, "moving_mean_initializer": {"class_name": "Zeros", "config": {}}, "gamma_regularizer": null, "scale": true, "momentum": 0.99, "gamma_constraint": null, "axis": -1, "moving_variance_initializer": {"class_name": "Ones", "config": {}}, "epsilon": 0.001, "gamma_initializer": {"class_name": "Ones", "config": {}}, "beta_constraint": null, "name": "conv_pw_11_bn", "beta_initializer": {"class_name": "Zeros", "config": {}}, "trainable": true, "beta_regularizer": null}}, {"name": "conv_pw_11_relu", "class_name": "ReLU", "inbound_nodes": [[["conv_pw_11_bn", 0, 0, {}]]], "config": {"name": "conv_pw_11_relu", "trainable": true, "max_value": 6.0}}, {"name": "conv_pad_12", "class_name": "ZeroPadding2D", "inbound_nodes": [[["conv_pw_11_relu", 0, 0, {}]]], "config": {"name": "conv_pad_12", "padding": [[0, 1], [0, 1]], "trainable": true, "data_format": "channels_last"}}, {"name": "conv_dw_12", "class_name": "DepthwiseConv2D", "inbound_nodes": [[["conv_pad_12", 0, 0, {}]]], "config": {"strides": [2, 2], "use_bias": false, "kernel_size": [3, 3], "bias_initializer": {"class_name": "Zeros", "config": {}}, "dilation_rate": [1, 1], "depthwise_constraint": null, "padding": "valid", "bias_regularizer": null, "data_format": "channels_last", "depthwise_regularizer": null, "activity_regularizer": null, "depthwise_initializer": {"class_name": "VarianceScaling", "config": {"distribution": "uniform", "scale": 1.0, "mode": "fan_avg", "seed": null}}, "depth_multiplier": 1, "name": "conv_dw_12", "activation": "linear", "bias_constraint": null, "trainable": true}}, {"name": "conv_dw_12_bn", "class_name": "BatchNormalization", "inbound_nodes": [[["conv_dw_12", 0, 0, {}]]], "config": {"center": true, "moving_mean_initializer": {"class_name": "Zeros", "config": {}}, "gamma_regularizer": null, "scale": true, "momentum": 0.99, "gamma_constraint": null, "axis": -1, "moving_variance_initializer": {"class_name": "Ones", "config": {}}, "epsilon": 0.001, "gamma_initializer": {"class_name": "Ones", "config": {}}, "beta_constraint": null, "name": "conv_dw_12_bn", "beta_initializer": {"class_name": "Zeros", "config": {}}, "trainable": true, "beta_regularizer": null}}, {"name": "conv_dw_12_relu", "class_name": "ReLU", "inbound_nodes": [[["conv_dw_12_bn", 0, 0, {}]]], "config": {"name": "conv_dw_12_relu", "trainable": true, "max_value": 6.0}}, {"name": "conv_pw_12", "class_name": "Conv2D", "inbound_nodes": [[["conv_dw_12_relu", 0, 0, {}]]], "config": {"strides": [1, 1], "use_bias": false, "kernel_size": [1, 1], "bias_initializer": {"class_name": "Zeros", "config": {}}, "dilation_rate": [1, 1], "kernel_initializer": {"class_name": "VarianceScaling", "config": {"distribution": "uniform", "scale": 1.0, "mode": "fan_avg", "seed": null}}, "trainable": true, "padding": "same", "kernel_constraint": null, "bias_regularizer": null, "data_format": "channels_last", "activity_regularizer": null, "filters": 1024, "name": "conv_pw_12", "kernel_regularizer": null, "bias_constraint": null, "activation": "linear"}}, {"name": "conv_pw_12_bn", "class_name": "BatchNormalization", "inbound_nodes": [[["conv_pw_12", 0, 0, {}]]], "config": {"center": true, "moving_mean_initializer": {"class_name": "Zeros", "config": {}}, "gamma_regularizer": null, "scale": true, "momentum": 0.99, "gamma_constraint": null, "axis": -1, "moving_variance_initializer": {"class_name": "Ones", "config": {}}, "epsilon": 0.001, "gamma_initializer": {"class_name": "Ones", "config": {}}, "beta_constraint": null, "name": "conv_pw_12_bn", "beta_initializer": {"class_name": "Zeros", "config": {}}, "trainable": true, "beta_regularizer": null}}, {"name": "conv_pw_12_relu", "class_name": "ReLU", "inbound_nodes": [[["conv_pw_12_bn", 0, 0, {}]]], "config": {"name": "conv_pw_12_relu", "trainable": true, "max_value": 6.0}}, {"name": "conv_dw_13", "class_name": "DepthwiseConv2D", "inbound_nodes": [[["conv_pw_12_relu", 0, 0, {}]]], "config": {"strides": [1, 1], "use_bias": false, "kernel_size": [3, 3], "bias_initializer": {"class_name": "Zeros", "config": {}}, "dilation_rate": [1, 1], "depthwise_constraint": null, "padding": "same", "bias_regularizer": null, "data_format": "channels_last", "depthwise_regularizer": null, "activity_regularizer": null, "depthwise_initializer": {"class_name": "VarianceScaling", "config": {"distribution": "uniform", "scale": 1.0, "mode": "fan_avg", "seed": null}}, "depth_multiplier": 1, "name": "conv_dw_13", "activation": "linear", "bias_constraint": null, "trainable": true}}, {"name": "conv_dw_13_bn", "class_name": "BatchNormalization", "inbound_nodes": [[["conv_dw_13", 0, 0, {}]]], "config": {"center": true, "moving_mean_initializer": {"class_name": "Zeros", "config": {}}, "gamma_regularizer": null, "scale": true, "momentum": 0.99, "gamma_constraint": null, "axis": -1, "moving_variance_initializer": {"class_name": "Ones", "config": {}}, "epsilon": 0.001, "gamma_initializer": {"class_name": "Ones", "config": {}}, "beta_constraint": null, "name": "conv_dw_13_bn", "beta_initializer": {"class_name": "Zeros", "config": {}}, "trainable": true, "beta_regularizer": null}}, {"name": "conv_dw_13_relu", "class_name": "ReLU", "inbound_nodes": [[["conv_dw_13_bn", 0, 0, {}]]], "config": {"name": "conv_dw_13_relu", "trainable": true, "max_value": 6.0}}, {"name": "conv_pw_13", "class_name": "Conv2D", "inbound_nodes": [[["conv_dw_13_relu", 0, 0, {}]]], "config": {"strides": [1, 1], "use_bias": false, "kernel_size": [1, 1], "bias_initializer": {"class_name": "Zeros", "config": {}}, "dilation_rate": [1, 1], "kernel_initializer": {"class_name": "VarianceScaling", "config": {"distribution": "uniform", "scale": 1.0, "mode": "fan_avg", "seed": null}}, "trainable": true, "padding": "same", "kernel_constraint": null, "bias_regularizer": null, "data_format": "channels_last", "activity_regularizer": null, "filters": 1024, "name": "conv_pw_13", "kernel_regularizer": null, "bias_constraint": null, "activation": "linear"}}, {"name": "conv_pw_13_bn", "class_name": "BatchNormalization", "inbound_nodes": [[["conv_pw_13", 0, 0, {}]]], "config": {"center": true, "moving_mean_initializer": {"class_name": "Zeros", "config": {}}, "gamma_regularizer": null, "scale": true, "momentum": 0.99, "gamma_constraint": null, "axis": -1, "moving_variance_initializer": {"class_name": "Ones", "config": {}}, "epsilon": 0.001, "gamma_initializer": {"class_name": "Ones", "config": {}}, "beta_constraint": null, "name": "conv_pw_13_bn", "beta_initializer": {"class_name": "Zeros", "config": {}}, "trainable": true, "beta_regularizer": null}}, {"name": "conv_pw_13_relu", "class_name": "ReLU", "inbound_nodes": [[["conv_pw_13_bn", 0, 0, {}]]], "config": {"name": "conv_pw_13_relu", "trainable": true, "max_value": 6.0}}, {"name": "global_average_pooling2d_1", "class_name": "GlobalAveragePooling2D", "inbound_nodes": [[["conv_pw_13_relu", 0, 0, {}]]], "config": {"name": "global_average_pooling2d_1", "trainable": true, "data_format": "channels_last"}}, {"name": "dropout_1", "class_name": "Dropout", "inbound_nodes": [[["global_average_pooling2d_1", 0, 0, {}]]], "config": {"name": "dropout_1", "trainable": true, "noise_shape": null, "rate": 0.25, "seed": null}}, {"name": "dense_1", "class_name": "Dense", "inbound_nodes": [[["dropout_1", 0, 0, {}]]], "config": {"use_bias": true, "bias_regularizer": null, "bias_initializer": {"class_name": "Zeros", "config": {}}, "kernel_initializer": {"class_name": "VarianceScaling", "config": {"distribution": "uniform", "scale": 1.0, "mode": "fan_avg", "seed": null}}, "trainable": true, "kernel_constraint": null, "bias_constraint": null, "activity_regularizer": null, "units": 7, "name": "dense_1", "kernel_regularizer": null, "activation": "softmax"}}], "output_layers": [["dense_1", 0, 0]], "input_layers": [["input_1", 0, 0]]}}, "training_config": {"optimizer_config": {"class_name": "Adam", "config": {"epsilon": 1e-07, "beta_1": 0.8999999761581421, "amsgrad": false, "lr": 0.0012499999720603228, "decay": 0.0, "beta_2": 0.9990000128746033}}, "loss_weights": null, "metrics": ["categorical_accuracy", "top_2_accuracy", "top_3_accuracy"], "loss": "categorical_crossentropy", "sample_weight_mode": null}}, "weightsManifest": [{"paths": ["group1-shard1of4", "group1-shard2of4", "group1-shard3of4", "group1-shard4of4"], "weights": [{"name": "conv1/kernel", "shape": [3, 3, 3, 32], "dtype": "float32"}, {"name": "conv1_bn/gamma", "shape": [32], "dtype": "float32"}, {"name": "conv1_bn/beta", "shape": [32], "dtype": "float32"}, {"name": "conv1_bn/moving_mean", "shape": [32], "dtype": "float32"}, {"name": "conv1_bn/moving_variance", "shape": [32], "dtype": "float32"}, {"name": "conv_dw_1/depthwise_kernel", "shape": [3, 3, 32, 1], "dtype": "float32"}, {"name": "conv_dw_10/depthwise_kernel", "shape": [3, 3, 512, 1], "dtype": "float32"}, {"name": "conv_dw_10_bn/gamma", "shape": [512], "dtype": "float32"}, {"name": "conv_dw_10_bn/beta", "shape": [512], "dtype": "float32"}, {"name": "conv_dw_10_bn/moving_mean", "shape": [512], "dtype": "float32"}, {"name": "conv_dw_10_bn/moving_variance", "shape": [512], "dtype": "float32"}, {"name": "conv_dw_11/depthwise_kernel", "shape": [3, 3, 512, 1], "dtype": "float32"}, {"name": "conv_dw_11_bn/gamma", "shape": [512], "dtype": "float32"}, {"name": "conv_dw_11_bn/beta", "shape": [512], "dtype": "float32"}, {"name": "conv_dw_11_bn/moving_mean", "shape": [512], "dtype": "float32"}, {"name": "conv_dw_11_bn/moving_variance", "shape": [512], "dtype": "float32"}, {"name": "conv_dw_12/depthwise_kernel", "shape": [3, 3, 512, 1], "dtype": "float32"}, {"name": "conv_dw_12_bn/gamma", "shape": [512], "dtype": "float32"}, {"name": "conv_dw_12_bn/beta", "shape": [512], "dtype": "float32"}, {"name": "conv_dw_12_bn/moving_mean", "shape": [512], "dtype": "float32"}, {"name": "conv_dw_12_bn/moving_variance", "shape": [512], "dtype": "float32"}, {"name": "conv_dw_13/depthwise_kernel", "shape": [3, 3, 1024, 1], "dtype": "float32"}, {"name": "conv_dw_13_bn/gamma", "shape": [1024], "dtype": "float32"}, {"name": "conv_dw_13_bn/beta", "shape": [1024], "dtype": "float32"}, {"name": "conv_dw_13_bn/moving_mean", "shape": [1024], "dtype": "float32"}, {"name": "conv_dw_13_bn/moving_variance", "shape": [1024], "dtype": "float32"}, {"name": "conv_dw_1_bn/gamma", "shape": [32], "dtype": "float32"}, {"name": "conv_dw_1_bn/beta", "shape": [32], "dtype": "float32"}, {"name": "conv_dw_1_bn/moving_mean", "shape": [32], "dtype": "float32"}, {"name": "conv_dw_1_bn/moving_variance", "shape": [32], "dtype": "float32"}, {"name": "conv_dw_2/depthwise_kernel", "shape": [3, 3, 64, 1], "dtype": "float32"}, {"name": "conv_dw_2_bn/gamma", "shape": [64], "dtype": "float32"}, {"name": "conv_dw_2_bn/beta", "shape": [64], "dtype": "float32"}, {"name": "conv_dw_2_bn/moving_mean", "shape": [64], "dtype": "float32"}, {"name": "conv_dw_2_bn/moving_variance", "shape": [64], "dtype": "float32"}, {"name": "conv_dw_3/depthwise_kernel", "shape": [3, 3, 128, 1], "dtype": "float32"}, {"name": "conv_dw_3_bn/gamma", "shape": [128], "dtype": "float32"}, {"name": "conv_dw_3_bn/beta", "shape": [128], "dtype": "float32"}, {"name": "conv_dw_3_bn/moving_mean", "shape": [128], "dtype": "float32"}, {"name": "conv_dw_3_bn/moving_variance", "shape": [128], "dtype": "float32"}, {"name": "conv_dw_4/depthwise_kernel", "shape": [3, 3, 128, 1], "dtype": "float32"}, {"name": "conv_dw_4_bn/gamma", "shape": [128], "dtype": "float32"}, {"name": "conv_dw_4_bn/beta", "shape": [128], "dtype": "float32"}, {"name": "conv_dw_4_bn/moving_mean", "shape": [128], "dtype": "float32"}, {"name": "conv_dw_4_bn/moving_variance", "shape": [128], "dtype": "float32"}, {"name": "conv_dw_5/depthwise_kernel", "shape": [3, 3, 256, 1], "dtype": "float32"}, {"name": "conv_dw_5_bn/gamma", "shape": [256], "dtype": "float32"}, {"name": "conv_dw_5_bn/beta", "shape": [256], "dtype": "float32"}, {"name": "conv_dw_5_bn/moving_mean", "shape": [256], "dtype": "float32"}, {"name": "conv_dw_5_bn/moving_variance", "shape": [256], "dtype": "float32"}, {"name": "conv_dw_6/depthwise_kernel", "shape": [3, 3, 256, 1], "dtype": "float32"}, {"name": "conv_dw_6_bn/gamma", "shape": [256], "dtype": "float32"}, {"name": "conv_dw_6_bn/beta", "shape": [256], "dtype": "float32"}, {"name": "conv_dw_6_bn/moving_mean", "shape": [256], "dtype": "float32"}, {"name": "conv_dw_6_bn/moving_variance", "shape": [256], "dtype": "float32"}, {"name": "conv_dw_7/depthwise_kernel", "shape": [3, 3, 512, 1], "dtype": "float32"}, {"name": "conv_dw_7_bn/gamma", "shape": [512], "dtype": "float32"}, {"name": "conv_dw_7_bn/beta", "shape": [512], "dtype": "float32"}, {"name": "conv_dw_7_bn/moving_mean", "shape": [512], "dtype": "float32"}, {"name": "conv_dw_7_bn/moving_variance", "shape": [512], "dtype": "float32"}, {"name": "conv_dw_8/depthwise_kernel", "shape": [3, 3, 512, 1], "dtype": "float32"}, {"name": "conv_dw_8_bn/gamma", "shape": [512], "dtype": "float32"}, {"name": "conv_dw_8_bn/beta", "shape": [512], "dtype": "float32"}, {"name": "conv_dw_8_bn/moving_mean", "shape": [512], "dtype": "float32"}, {"name": "conv_dw_8_bn/moving_variance", "shape": [512], "dtype": "float32"}, {"name": "conv_dw_9/depthwise_kernel", "shape": [3, 3, 512, 1], "dtype": "float32"}, {"name": "conv_dw_9_bn/gamma", "shape": [512], "dtype": "float32"}, {"name": "conv_dw_9_bn/beta", "shape": [512], "dtype": "float32"}, {"name": "conv_dw_9_bn/moving_mean", "shape": [512], "dtype": "float32"}, {"name": "conv_dw_9_bn/moving_variance", "shape": [512], "dtype": "float32"}, {"name": "conv_pw_1/kernel", "shape": [1, 1, 32, 64], "dtype": "float32"}, {"name": "conv_pw_10/kernel", "shape": [1, 1, 512, 512], "dtype": "float32"}, {"name": "conv_pw_10_bn/gamma", "shape": [512], "dtype": "float32"}, {"name": "conv_pw_10_bn/beta", "shape": [512], "dtype": "float32"}, {"name": "conv_pw_10_bn/moving_mean", "shape": [512], "dtype": "float32"}, {"name": "conv_pw_10_bn/moving_variance", "shape": [512], "dtype": "float32"}, {"name": "conv_pw_11/kernel", "shape": [1, 1, 512, 512], "dtype": "float32"}, {"name": "conv_pw_11_bn/gamma", "shape": [512], "dtype": "float32"}, {"name": "conv_pw_11_bn/beta", "shape": [512], "dtype": "float32"}, {"name": "conv_pw_11_bn/moving_mean", "shape": [512], "dtype": "float32"}, {"name": "conv_pw_11_bn/moving_variance", "shape": [512], "dtype": "float32"}, {"name": "conv_pw_12/kernel", "shape": [1, 1, 512, 1024], "dtype": "float32"}, {"name": "conv_pw_12_bn/gamma", "shape": [1024], "dtype": "float32"}, {"name": "conv_pw_12_bn/beta", "shape": [1024], "dtype": "float32"}, {"name": "conv_pw_12_bn/moving_mean", "shape": [1024], "dtype": "float32"}, {"name": "conv_pw_12_bn/moving_variance", "shape": [1024], "dtype": "float32"}, {"name": "conv_pw_13/kernel", "shape": [1, 1, 1024, 1024], "dtype": "float32"}, {"name": "conv_pw_13_bn/gamma", "shape": [1024], "dtype": "float32"}, {"name": "conv_pw_13_bn/beta", "shape": [1024], "dtype": "float32"}, {"name": "conv_pw_13_bn/moving_mean", "shape": [1024], "dtype": "float32"}, {"name": "conv_pw_13_bn/moving_variance", "shape": [1024], "dtype": "float32"}, {"name": "conv_pw_1_bn/gamma", "shape": [64], "dtype": "float32"}, {"name": "conv_pw_1_bn/beta", "shape": [64], "dtype": "float32"}, {"name": "conv_pw_1_bn/moving_mean", "shape": [64], "dtype": "float32"}, {"name": "conv_pw_1_bn/moving_variance", "shape": [64], "dtype": "float32"}, {"name": "conv_pw_2/kernel", "shape": [1, 1, 64, 128], "dtype": "float32"}, {"name": "conv_pw_2_bn/gamma", "shape": [128], "dtype": "float32"}, {"name": "conv_pw_2_bn/beta", "shape": [128], "dtype": "float32"}, {"name": "conv_pw_2_bn/moving_mean", "shape": [128], "dtype": "float32"}, {"name": "conv_pw_2_bn/moving_variance", "shape": [128], "dtype": "float32"}, {"name": "conv_pw_3/kernel", "shape": [1, 1, 128, 128], "dtype": "float32"}, {"name": "conv_pw_3_bn/gamma", "shape": [128], "dtype": "float32"}, {"name": "conv_pw_3_bn/beta", "shape": [128], "dtype": "float32"}, {"name": "conv_pw_3_bn/moving_mean", "shape": [128], "dtype": "float32"}, {"name": "conv_pw_3_bn/moving_variance", "shape": [128], "dtype": "float32"}, {"name": "conv_pw_4/kernel", "shape": [1, 1, 128, 256], "dtype": "float32"}, {"name": "conv_pw_4_bn/gamma", "shape": [256], "dtype": "float32"}, {"name": "conv_pw_4_bn/beta", "shape": [256], "dtype": "float32"}, {"name": "conv_pw_4_bn/moving_mean", "shape": [256], "dtype": "float32"}, {"name": "conv_pw_4_bn/moving_variance", "shape": [256], "dtype": "float32"}, {"name": "conv_pw_5/kernel", "shape": [1, 1, 256, 256], "dtype": "float32"}, {"name": "conv_pw_5_bn/gamma", "shape": [256], "dtype": "float32"}, {"name": "conv_pw_5_bn/beta", "shape": [256], "dtype": "float32"}, {"name": "conv_pw_5_bn/moving_mean", "shape": [256], "dtype": "float32"}, {"name": "conv_pw_5_bn/moving_variance", "shape": [256], "dtype": "float32"}, {"name": "conv_pw_6/kernel", "shape": [1, 1, 256, 512], "dtype": "float32"}, {"name": "conv_pw_6_bn/gamma", "shape": [512], "dtype": "float32"}, {"name": "conv_pw_6_bn/beta", "shape": [512], "dtype": "float32"}, {"name": "conv_pw_6_bn/moving_mean", "shape": [512], "dtype": "float32"}, {"name": "conv_pw_6_bn/moving_variance", "shape": [512], "dtype": "float32"}, {"name": "conv_pw_7/kernel", "shape": [1, 1, 512, 512], "dtype": "float32"}, {"name": "conv_pw_7_bn/gamma", "shape": [512], "dtype": "float32"}, {"name": "conv_pw_7_bn/beta", "shape": [512], "dtype": "float32"}, {"name": "conv_pw_7_bn/moving_mean", "shape": [512], "dtype": "float32"}, {"name": "conv_pw_7_bn/moving_variance", "shape": [512], "dtype": "float32"}, {"name": "conv_pw_8/kernel", "shape": [1, 1, 512, 512], "dtype": "float32"}, {"name": "conv_pw_8_bn/gamma", "shape": [512], "dtype": "float32"}, {"name": "conv_pw_8_bn/beta", "shape": [512], "dtype": "float32"}, {"name": "conv_pw_8_bn/moving_mean", "shape": [512], "dtype": "float32"}, {"name": "conv_pw_8_bn/moving_variance", "shape": [512], "dtype": "float32"}, {"name": "conv_pw_9/kernel", "shape": [1, 1, 512, 512], "dtype": "float32"}, {"name": "conv_pw_9_bn/gamma", "shape": [512], "dtype": "float32"}, {"name": "conv_pw_9_bn/beta", "shape": [512], "dtype": "float32"}, {"name": "conv_pw_9_bn/moving_mean", "shape": [512], "dtype": "float32"}, {"name": "conv_pw_9_bn/moving_variance", "shape": [512], "dtype": "float32"}, {"name": "dense_1/kernel", "shape": [1024, 7], "dtype": "float32"}, {"name": "dense_1/bias", "shape": [7], "dtype": "float32"}]}]}